sim200/diff_param200.npy (npy, 1728 bytes, 1 tensors)

array f8 [200]
0	0x400645cb807f14e0	2.784079555395337
1	0xc005a6437fa91af3	-2.7061834310037454
2	0xbff04a7d69e67469	-1.0181860100485898
3	0x40074832fb33365a	2.910253489017845
4	0xbfe56a63d5ef9448	-0.6692370584902472
5	0x40061220b71f13d8	2.758851462016974
6	0x3ff7000ac8201674	1.4375102822681614
7	0xbff91b001df47034	-1.569091908465464
8	0x40032f4687772788	2.3980837424505275
9	0x40054c1bcb2137f2	2.6621623868477338
10	0xc0036cff73539e26	-2.428221608151733
11	0x400410dc21e8b4f8	2.508232369341041
12	0x3fced9e20859dec0	0.24102425964132657
13	0x3fd4656f1edc23b0	0.31869104398407
14	0xbfff874442c30af8	-1.9705240829359223
15	0x3feeab571368d284	0.9584155444232043
16	0x40043275a8bf928a	2.5246384795630705
17	0xbff40095c55bbb5b	-1.2501428326902075
18	0xbfeeb07d7b0969f8	-0.9590442088186242
19	0xbfbc161f63b60700	-0.10971256431914966
20	0x40053f5a2d2e84ae	2.65593371675694
21	0xbf95f94b79dbd200	-0.021458796799338486
22	0xbff88089aabf1da7	-1.5313812894617997
23	0xbfed510093323838	-0.9161379694867327
24	0x4001a91d7e9a9a86	2.207575787633064
25	0x3fe7d7899f199cf0	0.7450607402251119
26	0x3fe042fab5152e28	0.5081761872074297
27	0xc003312e95f776a4	-2.3990146366257523
28	0xc00345fe728a245a	-2.4091767261893837
29	0x3fe98da855329970	0.7985421813980746
30	0x3ffaf840516c4f40	1.6856082134808759
31	0xc0064c4a68fcaea2	-2.787251301013229
32	0x3fcbb7642c63d6c0	0.21653415839653256
33	0x3fa4c4577e39da00	0.040560468824811124
34	0x3ff01adb6ebbebf4	1.0065569234418463
35	0x3fe7d4bb85910380	0.7447183235855022
36	0xc007e316d8cdbb8a	-2.9858834207329368
37	0xc003a44fd75cda3a	-2.4552304101191824
38	0xc0017d7f0d5048e0	-2.1862774887205063
39	0xbff81a6d18be61d0	-1.5064516989278793
40	0xbff77f7c4f89da51	-1.4686244112941902
41	0xbffa4a8109d5c167	-1.6431894668749807
42	0xbffe015db506c664	-1.8753335067125585
43	0xbff0cb547d1f3c3f	-1.0496411216333994
44	0xbfd71df374bcb680	-0.36120306396592383
45	0x40009c144cc2c368	2.07621059388514
46	0x4005edda69143e2a	2.7411392411520596
47	0x3ff5fc35465e3bd0	1.3740742443803704
48	0xc002ca41a9d0827a	-2.348758055377684
49	0x3fe0e47d7416e240	0.5278918521281142
50	0xbff51208d3a4d7e9	-1.3169029490795714
51	0xbfd39da9e6311d10	-0.3064980266539843
52	0xbfc8acf4d2edd6c0	-0.1927782087256471
53	0x3ff9f87569ae48f4	1.623158848586681
54	0x4006ea54933db850	2.8644191268167916
55	0xbfeef14ccf2cf280	-0.9669555708311037
56	0x3fe1da4e8b0454b4	0.5578987803625268
57	0xbffa21b15203540c	-1.6332257465012416
58	0x3fe185601ed8f168	0.54753118538751
59	0x3ffdfa8b31988798	1.8736679017388038
60	0xbff15bb6b33d078d	-1.0848910333156454
61	0x40060ddd2d16896c	2.7567695162298858
62	0x3ffb4761b42c70e8	1.7049271619826474
63	0xbfdfa15542e82790	-0.49422198804733686
64	0xbfea5b7974cc735c	-0.823666313288054
65	0xc0071d6a39537a20	-2.889362762317674
66	0xbfdb910aefba9638	-0.43072770510693514
67	0x3ff076a10e120ee0	1.0289621877317856
68	0x3fe2e1e474e05310	0.5900747568835829
69	0x3fdbaf144024a718	0.4325609804533186
70	0x4004683e3ba22b20	2.550899949919213
71	0xc004a87ee893f674	-2.5822733087687144
72	0xbffe461fd8070eee	-1.8921202124192251
73	0xbff5a5421437173d	-1.352846220937365
74	0x3ffdc5e145efac98	1.8608105403789406
75	0xc0019d5609f0f9b0	-2.2018242623009527
76	0xc001d01fde5881c6	-2.2266232844124003
77	0x3fe344f19d370988	0.602165991840864
78	0xbfd110d643d848e8	-0.2666526472613797
79	0xbf94324be91ef400	-0.019723116019793707
80	0xbfe1af20eb04a91c	-0.5526280012320828
81	0xc002139f50019b10	-2.2595812082757973
82	0x3fe0009c37918e2c	0.5000744901012175
83	0x3fe8085605269610	0.7510175800895826
84	0x3ffdff0be656a888	1.8747672078702937
85	0xbff59072879020e2	-1.3477654738836056
86	0x400614fd99963f76	2.760249328515722
87	0xc002ec1c90b51a94	-2.3652888589161396
88	0x4004999105c60042	2.5749836398172485
89	0xbfedaff37de39d18	-0.9277284106036943
90	0x3fec9f3d367e0b08	0.8944383682540726
91	0x3fe801a7b1d5c788	0.7502020333615613
92	0xbff91a23da99293c	-1.5688818491931462
93	0xc0044a1b54bc32b2	-2.5361849422391396
94	0xbfd68881f8029258	-0.35208176822405823
95	0xc0020a5c6bcf36f7	-2.2550590918170843
96	0x3fc8c6aa64dcb780	0.19356279301558388
97	0xbfe0ddeba5cbfbd0	-0.5270899046153037
98	0xbffd8e5c7e18f559	-1.8472561765368793
99	0xbfe665b11075bf60	-0.6999135323985506
100	0xbfe3f7f291fdb1e4	-0.624017033709205
101	0x3f915219097d1380	0.016914740757119073
102	0xbff80d13d27115a4	-1.503192731893571
103	0xbfff9f56d6ab1f97	-1.976401175068508
104	0x3ffcb48ef8ac2c10	1.7940816606303578
105	0x3fc3112f3c879500	0.1489619298510334
106	0xbffd8a9e506c39ea	-1.846342386390115
107	0x3fffe67f222c8a70	1.9937735876962073
108	0xbffaf5153d551671	-1.6848347087665412
109	0x40005c9f81b4b42a	2.045226109816686
110	0x3fb2dd823f48bdc0	0.0736924557211216
111	0x40002e58d9d925c6	2.0226304072755026
112	0x3ffc6977d1ebf9fc	1.7757490348882348
113	0xc004c90e0fe17fd4	-2.5981713524524626
114	0x3fb64bad7c477480	0.08709224971922147
115	0x40008ff74293aaac	2.0702958298982903
116	0xbff12db678707357	-1.0736603455217926
117	0x3fef78c8a8897744	0.9834941188562216
118	0x3ff60e9b67e4e580	1.378566175304826
119	0xc0024fb0bded0a4a	-2.2889113271678854
120	0x400643916219f9d2	2.7829921402146534
121	0x400014e442a4d592	2.010200997023909
122	0x3ff065c3c03616dc	1.0248448856595394
123	0xbff3591112943a95	-1.2092447973006177
124	0xbffaed7dee692be1	-1.6829814255640871
125	0x3ffe2e6f78f26ac8	1.8863367771615902
126	0x4001a41b57dd3848	2.205130278051943
127	0x3fdcb7977c0ac530	0.4487055503223756
128	0xbfa2342d52e2c880	-0.0355543292693179
129	0x3febdf7af124c848	0.8710303029859086
130	0xc000af4b4ca5cf2e	-2.085592840967272
131	0x400661a1132be708	2.797670507218644
132	0x3fdefdc17e738820	0.484238027083963
133	0xbff9061c3a8c8c38	-1.5639917647429353
134	0xc007b17e03ab9cbb	-2.9616661345240494
135	0x40063652083c3c56	2.7765236514456246
136	0x40053388fb8d0dc6	2.6501636173649983
137	0xbff462a4481bf4a1	-1.2740824524655994
138	0xc005b4232961efa1	-2.712957690526267
139	0xbfe64647514867c0	-0.6960789287143072
140	0x400425d46f3b0ea0	2.518471592893391
141	0xbffd4304cfd2ac19	-1.8288620107730422
142	0x4006ab6a59e248c0	2.8336989423924877
143	0xc007752a6aac3ac1	-2.93220980966666
144	0xbff5e06da63fd2b6	-1.367292069827426
145	0xc003087e0743025a	-2.3791466300320225
146	0xbff6ea26cc1a44e9	-1.4321659062155112
147	0x40020afffe118f0e	2.2553710793598674
148	0xc00467094a716fc0	-2.550310689532097
149	0x3ffbaa5ab2211670	1.7290904005216383
150	0xbfe69fc113e21e5c	-0.7070012462945203
151	0xbfdc911a4443d730	-0.4463563601160443
152	0x3ff74460e4d563dc	1.4541939677057973
153	0xc002947fcb5bf1a0	-2.3225093734201465
154	0xbfffac87d84d3b7b	-1.9796217393192979
155	0x3fb42ccd13d16520	0.07880861028515485
156	0x3f7295895fce6c00	0.004537140482081092
157	0x3ff706d5b3b01dc8	1.439168645769188
158	0xbff244bf9f97480a	-1.1417843088170252
159	0xbff77e13a1d355d7	-1.4682804414090833
160	0x3fcd6af3b20ac910	0.2298264140459385
161	0x3ff187aa9e9634f0	1.0956216997904527
162	0xbff05c66f519e09a	-1.0225591253529616
163	0xc00136530a4e7e2e	-2.151525574226773
164	0x3fce8f4fe9746c00	0.2387485399165996
165	0xbff3b7b603e3bc1d	-1.2323513175904346
166	0xbfba25c63891f800	-0.10213889008625188
167	0xc004f7e0d85afc60	-2.6210343268171954
168	0xbffa2cf6882986a8	-1.6359772986255994
169	0xbfe2c6e24e421f38	-0.586777832840176
170	0xbfe8c660d7e80130	-0.7742161003989505
171	0xbff77828ebd0de0d	-1.4668359004552969
172	0xbff0c2201a0fa0e5	-1.0473938959130973
173	0x3ff704aab03cdc5c	1.4386393436705225
174	0xc00744cdbc76a724	-2.9085955356321325
175	0x3fff2b4145c64570	1.9480602956358233
176	0xbfed23655d4032b8	-0.9105707951835802
177	0x3ff9a0ec4f80bfd4	1.6017878633101548
178	0xbff2fbe18bb0e167	-1.1864943939854926
179	0x3f7c34961497c800	0.006886087657663964
180	0x3fd45f4ee074e0d0	0.31831714553437696
181	0x40079325078b8392	2.9468479718638685
182	0x3fde7dd5b335e3b0	0.476430344591388
183	0xbffb0f68715722c1	-1.6912617137297021
184	0xbfca68e4502ed1e0	-0.20632604518108533
185	0xbffffcc568cf8596	-1.999211701790363
186	0x4005220e87b01dcc	2.6416292763349016
187	0x3ff11e968c154be8	1.0699677917480077
188	0x3ffd75f8099f76ec	1.8413010002035959
189	0x40034ee17aeb53f4	2.41351600676216
190	0xbfff45345c28fa30	-1.9543956375124587
191	0x400410ac19a92094	2.5081407551516097
192	0x40014793bc359ab0	2.1599497512682646
193	0x400714051634243e	2.8847753271734566
194	0xbfd189e02deb99b0	-0.27404026493459366
195	0x3f8f67d51c424500	0.015334763455288059
196	0x3ff88a7906ca9bcc	1.5338068261423699
197	0x3feb054fa5e64240	0.8443983307098009
198	0x40009217ae54fcaa	2.071334230393025
199	0x3ff9283bd9dacf58	1.5723227033567664
